5FINAL_YEAR_PROJECT/multi-output-conformal-regression/data/logs/2025-09-05/04-33-45/stocks/NVDA2025-8-27-20/0/checkpoints/epoch_0187.ckpt (torch, 135780 bytes, 92 tensors)

model.flow.flows.1.icnn.Wzs.0.weight f4 [40, 1]
000000 b2 63 26 3e bb 8b 70 3d 0d 86 09 be 1b 80 c7 be
       0.16248968 0.058727007 -0.13430043 -0.38964924
000010 18 2d d6 be 17 13 30 3f 93 10 55 3e ef 10 af 3e
       -0.4183128 0.6877913 0.20807104 0.34192607
000020 fe f1 50 be c4 d2 f7 be fc 80 eb be 53 e7 e1 be
       -0.20404813 -0.4840299 -0.45996845 -0.441218
000030 43 12 b2 be 87 79 c0 be 68 37 a8 3e eb 80 54 3e
       -0.34779558 -0.37592718 0.32854772 0.20752303
000040 70 cd 43 3f 8b d5 30 3f fe be 54 bf 5f 6c cc bd
       0.7648535 0.6907584 -0.8310393 -0.09981608
000050 f1 5f 64 3f a0 de 4e 3f 8d 2e 1a be c3 45 46 bf
       0.89208895 0.8080845 -0.1505682 -0.774502
000060 c4 a2 47 3e 68 51 93 3e 83 7e f6 3e 46 08 3f bd
       0.19495684 0.28773046 0.48143396 -0.04663875
000070 c7 5c 24 bf 6a 27 37 be eb bf 3d 3e 4e b2 48 bf
       -0.64204067 -0.17886129 0.18530242 -0.7839707
000080 24 db a2 3e 89 81 ee be c5 e3 da 3e 00 1f 1e bf
       0.31807816 -0.46583202 0.427519 -0.6176605
000090 9b 4c f7 be 00 9a bd 3e 26 a0 6b bd 0e b2 f7 bd
       -0.48300633 0.37031555 -0.057525776 -0.12094508

model.flow.flows.1.icnn.Wzs.0.bias f4 [40]
000000 d8 4a 55 bf 98 4f 38 bf 33 48 ac bb 0e d8 f5 3e
       -0.8331733 -0.7199645 -0.0052576303 0.480164
000010 42 a0 34 3f 79 48 02 3f 51 18 1c 3f 91 7e 5f 3f
       0.70557034 0.50891834 0.60974604 0.873025
000020 b2 ca 66 bf e3 ba 2b bf 79 3c 51 bf 9a dd 67 3f
       -0.9015304 -0.6708204 -0.817329 0.9057251
000030 fb 33 f2 bd de 30 d7 be ac db cd be eb f4 44 3e
       -0.11826321 -0.4202947 -0.4020666 0.19234054
000040 99 85 2b be 68 de 96 be 43 78 f6 be e0 51 63 3f
       -0.16750182 -0.29466558 -0.48138627 0.88796806
000050 81 d7 21 3e ab 42 0a 3f 43 ec 36 bf b2 d1 ff be
       0.15804864 0.5400798 -0.71454257 -0.49964672
000060 c8 aa 7f be 45 7b 4a 3e 9c bf 70 bf 6d 73 0d bf
       -0.24967492 0.19773586 -0.9404237 -0.5525425
000070 ea b3 08 3f c2 53 62 3f d1 3b 65 bf dd 46 1e 3d
       0.5339953 0.88409054 -0.895444 0.0386418
000080 73 f0 fa be 8e 81 a5 be 26 08 3f bd df 15 1d bf
       -0.49011573 -0.32325405 -0.04663863 -0.613615
000090 85 77 8f be 96 dd 6d 3f b2 42 52 3f 8e 3a a3 3e
       -0.28020874 0.9291624 0.8213302 0.3188061

model.flow.flows.1.icnn.Wzs.1.weight f4 [40, 40]
000000 00 9d 26 be 24 76 dd bd cb e0 10 be 35 93 7e be
       -0.16270828 -0.10813549 -0.14148252 -0.24860843
000010 aa 23 37 be 6f 2a 6c be 9f d0 38 bd c3 8b 41 bd
       -0.17884699 -0.23063062 -0.04512083 -0.047252428
000020 f0 0b 15 be 8e 5e bd bd 00 c8 20 3d 41 94 4c be
       -0.14555335 -0.092465505 0.039253235 -0.1997843
000030 86 1b 5a be ed 9f 10 3d b9 7c 6b be cc 58 6e be
       -0.21299562 0.035308767 -0.22996797 -0.23276061
000040 96 8e 47 be c5 ca a1 bd e7 8d d2 bd b1 99 ff bd
       -0.19487986 -0.07900003 -0.10280972 -0.12480486
000050 75 55 b8 bd 8a 3b 70 bc 1c 7f 70 be 52 b7 fb bd
       -0.09000675 -0.014662633 -0.23485988 -0.12290825
000060 6f 07 59 be b0 1c 53 be 78 ab fa bd 92 3d 5d be
       -0.21194242 -0.20616412 -0.12239736 -0.21605518
000070 22 e3 7f be 01 d2 73 bd e8 8b ae 3c f5 f2 8d 3b
       -0.24988988 -0.059526447 0.021306947 0.0043319413
000080 34 f1 46 bd 2d 10 3a bd 93 ae 29 be 9f 32 12 3d
       -0.048569873 -0.045425583 -0.16570501 0.035692807
000090 04 33 ee bd b8 63 5d be cc 40 c0 3d 8f c3 91 3d
       -0.11630824 -0.21620071 0.09387359 0.07117378
0000a0 a6 e7 10 be 3b 74 55 3e 15 c5 67 3d ec f8 df 3c
       -0.14150867 0.2084512 0.056584436 0.027340375
0000b0 5b 0b cf 3d 1c 74 e2 3d a1 4c 2a be 1c 4f 53 b9
       0.10109588 0.11057302 -0.16630794 -0.00020151999
0000c0 75 2a db bd 6b 41 d7 bc 0a 8c 22 be c4 5c 91 bd
       -0.107014574 -0.02627631 -0.15873733 -0.07097772
0000d0 7a ba 8d 3d e4 f1 a7 bd 8b d6 10 3b 39 ba 0e be
       0.06920333 -0.08200434 0.0022100534 -0.13938226
0000e0 a2 df f8 bd d5 58 4c 3c 12 d6 0c be c9 4a d0 bd
       -0.121520296 0.012472351 -0.13753536 -0.10170514
0000f0 23 b2 48 be 00 56 76 bb 3b 02 8c 3d 8b 36 a1 bd
       -0.19599204 -0.003758788 0.06836363 -0.07871731
000100 94 89 88 bd 13 65 b7 bd 61 8e f4 bc 60 b8 01 3e
       -0.06666866 -0.08954825 -0.029853048 0.1266799
000110 06 15 c4 bd eb 05 b8 bd 6d 32 5e bc 1a b3 1a be
       -0.095743224 -0.08985504 -0.013561827 -0.15107384
000120 70 72 9d 3d 72 5b 0d be 25 4b 86 3d 9e 2d c1 3d
       0.07687843 -0.13804415 0.065573014 0.09432529
000130 d5 16 c9 bd 3e 69 d6 3d b0 d9 b9 bb 19 41 eb 3d
       -0.09818808 0.10469292 -0.0056717023 0.11487026
000140 a3 3a a2 3d 57 6f 67 bd ef 0d e3 3d 02 bd a6 3c
       0.0792134 -0.056502666 0.11086642 0.020353798
000150 49 78 bd 3d d2 fe 0a 3e 3c a7 2c bd 5f 69 3e bd
       0.09251458 0.13573769 -0.042151675 -0.04648721
000160 bd 9c 49 3e 5b fd b3 3d 51 c0 9f bd fc 1b d3 bd
       0.19688697 0.08788558 -0.07800353 -0.10308072
000170 56 d0 49 3d 58 d2 27 3e 62 b7 d5 3d 60 1c 80 3c
       0.04927095 0.16388834 0.10435368 0.01563853
000180 9a 7b 96 bc b0 a0 49 3e 8e da 57 bc be 28 9f bd
       -0.018369485 0.19690204 -0.013174666 -0.07771443
000190 25 20 bf 3d 89 61 2c 3e 2a c8 4a 3d 67 4f 2e 3e
       0.09332303 0.16834082 0.049507298 0.17022477
0001a0 dd df 02 3e 71 0b a4 bd 6e fb 20 bd 87 98 04 be
       0.1278071 -0.08009995 -0.039302282 -0.1294881
0001b0 c9 c5 35 3e 93 9e 45 3e 35 b2 d9 bd ce a3 cd 3c
       0.1775123 0.19298773 -0.106296934 0.025102522
0001c0 fa 05 2d 3d 04 25 04 3e 54 c1 9d 3c c9 ac b6 bc
       0.042242028 0.12904745 0.019257225 -0.022299187
0001d0 96 6a 50 3e 79 2d 27 3e 2d 82 c1 3d 73 ff 8b 3d
       0.2035316 0.1632594 0.09448657 0.068358324
0001e0 f2 e9 a5 bb ef 6b ab 3d a1 fe bb bd ee bb a5 bd
       -0.005063289 0.08370196 -0.09179426 -0.08092485
0001f0 b1 38 51 3d ff c7 8e bc f1 eb 63 3d 8a 9e 05 3c
       0.051079456 -0.01742935 0.055644933 0.008155474
000200 e1 a4 e8 3c 67 64 59 bc 23 78 a4 3d 42 b2 76 3d
       0.028398933 -0.013268567 0.08030727 0.060228594
000210 b5 45 f9 3c 22 f9 a4 3c c9 82 5d 3d 58 f6 2a be
       0.030428747 0.020138327 0.054079805 -0.16695535
000220 3a 8b af 3d fb 55 02 3d a9 8d 97 3b 84 86 d6 bd
       0.08571477 0.03182028 0.0046250415 -0.104748756
000230 80 f1 32 be da 09 83 bc d0 05 d5 bc f6 b9 2b be
       -0.17474937 -0.015995909 -0.026003748 -0.16770157
000240 48 6a a5 3d ef 6f cd 3c e4 d3 b1 3c 88 e4 02 3e
       0.08076912 0.025077788 0.021707483 0.1278249
000250 97 5f f2 3c 70 86 35 3c fc 97 05 3e 3a d4 ec 3d
       0.029586596 0.011079416 0.13046259 0.115639165
000260 72 55 a8 bd d5 13 0c be 03 cd b7 bd 18 e4 9a bc
       -0.082194224 -0.1367944 -0.0897465 -0.018907592
000270 59 34 02 3e e4 05 c7 bd dc 4c bf 3c c2 7f 2c bd
       0.12715282 -0.097179204 0.02335208 -0.042114027
000280 01 89 56 bb e0 f7 6d bc ef 66 06 be f8 b4 d6 bd
       -0.003273547 -0.01452443 -0.13125204 -0.10483736
000290 24 ac 4b 3d da 44 94 bd 60 e1 18 3d f3 c4 4e be
       0.049724713 -0.07239695 0.03732431 -0.20192318
0002a0 aa f5 4c be 51 53 11 be e8 13 70 be 22 b4 aa bd
       -0.20015588 -0.14191939 -0.23445094 -0.08335139
0002b0 fa 3e 80 3c c3 87 1b be 1c d9 f3 bd 47 53 54 be
       0.01565503 -0.15188508 -0.11906645 -0.20734893
0002c0 a8 bb 14 be 87 9a dc 3c b2 6e 40 be 2f 80 8d bc
       -0.1452471 0.026929153 -0.18792227 -0.017273037
0002d0 7b 3e 32 3d 8d 24 c2 bd 40 4a 8f bd 08 2f c4 bc
       0.043516617 -0.09479628 -0.06996584 -0.023948207
0002e0 b4 6b c6 bc 59 e5 77 3c d1 85 66 be 0e c7 42 bd
       -0.024221279 0.015130364 -0.22511984 -0.047553115
0002f0 57 d7 48 be 8c fc 7d be 22 cb 7c bd ff b8 77 be
       -0.19613396 -0.2480337 -0.06171716 -0.24191664
000300 e6 34 42 be fb ab da bd 58 71 f4 bd 57 16 0e be
       -0.18965492 -0.10677334 -0.11935681 -0.1387571
000310 96 6f ce bd 89 76 48 bd d7 64 63 3d 0b a4 1e be
       -0.10079877 -0.04894117 0.05551609 -0.15492265
000320 c7 3c 81 3d 9d 3c 43 3c c0 ef f8 3d b8 92 3b be
       0.063104205 0.011916307 0.12155104 -0.18317688
000330 37 44 2e bc 6b 84 55 bc e2 a2 67 3d 5d 85 c9 bb
       -0.010636381 -0.013032059 0.05655182 -0.0061499313
000340 c3 a5 f1 bc fb 05 31 bd 75 d9 07 3d ee 7a 9c 3d
       -0.029497987 -0.043218594 0.033166368 0.076406345
000350 fc 75 d8 bc 5f ed 45 be cc 54 a7 bd ef f2 93 bd
       -0.026423447 -0.19328831 -0.081704706 -0.0722407
000360 bd 2c 59 3c 53 eb d9 bb 19 58 38 be eb 8a 2c be
       0.013255295 -0.0066503673 -0.18002357 -0.16849868
000370 59 c4 16 be f8 27 29 3c 20 01 b3 bd 92 ea 9b 3d
       -0.14723338 0.010324471 -0.08740449 0.076131
000380 c4 7d 41 be 42 c2 2d bd 79 8b 3f be b3 f5 dd 3c
       -0.18895632 -0.042421587 -0.18705548 0.027094698
000390 f1 06 9a bc a0 67 b5 bd d7 9b ec 3c c2 62 c6 3c
       -0.018802138 -0.088576555 0.028882904 0.024217013
0003a0 a8 5f 09 3c a6 01 4b be 1e 11 1e be b9 a2 42 bc
       0.008384623 -0.19824848 -0.15436217 -0.011879616
0003b0 81 91 fd bb c7 1a ec bd 2c 0e 0e 3e 08 ef a1 bd
       -0.0077382927 -0.11528545 0.13872594 -0.0790692
0003c0 2a 10 0a bc 7f 49 1a 3e bf 11 4e bd 5a 51 14 3e
       -0.008426705 0.15067099 -0.050309893 0.14484158
0003d0 e2 34 d6 3d f9 60 1b 3e 7f 74 81 bd 89 22 18 3d
       0.10459305 0.15173711 -0.06321048 0.03714231
0003e0 87 5e 94 3d 63 ab ad 3d ea 89 75 b9 99 46 30 3c
       0.07244592 0.08479955 -0.00023416398 0.010759019
0003f0 4c e3 f8 3d 70 0e 07 3e a3 03 6e bd 8c 9e 2b 3e
       0.121527284 0.13189101 -0.058108937 0.167597

model.flow.flows.1.icnn.Wzs.1.bias f4 [40]
000000 94 88 05 3e f5 d1 ba bd 8e 90 a4 bd a0 91 cb 3d
       0.13040382 -0.091220774 -0.08035384 0.09939885
000010 13 de 1d be 11 56 b2 bd e8 8e 92 3c ec b2 3a be
       -0.15416746 -0.08707822 0.017890409 -0.18232316
000020 fe 98 49 3e 77 1f 3a 3d 2b c9 f9 3d 73 32 a0 bd
       0.19687268 0.045440163 0.12196573 -0.078221224
000030 4d 33 42 3c 2a ab 06 3d 2e 82 0b bd a1 37 2a bd
       0.011853051 0.03287808 -0.034059696 -0.041556958
000040 94 98 ff 3c 0e 41 0b 3e cc 10 57 3d 4a 49 a2 bc
       0.031200685 0.13599035 0.052506253 -0.019810338
000050 23 ae 13 3e 5a 70 21 3e 50 9a 3e bd 10 db d8 3d
       0.14421897 0.15765515 -0.046533883 0.10588658
000060 cc a2 65 3d 19 16 9e 3d ce c4 8c bc 85 7f cd 3b
       0.05606346 0.077190585 -0.017183688 0.006271305
000070 1f d7 89 3d bd bd e6 3d ac 3d 3a 3c ab 40 16 3e
       0.06730484 0.112666585 0.011367243 0.14673106
000080 53 f9 e6 bc 08 ea 15 3e 96 92 ae 3c 6f c7 2b 3e
       -0.028195059 0.14640057 0.021310132 0.16775297
000090 21 7e c6 bc 1a 61 88 bc 43 c6 54 3c 4a 88 fd bc
       -0.024230065 -0.016647864 0.012986722 -0.030948777

model.flow.flows.1.icnn.Wzs.2.weight f4 [1, 40]
000000 af ad f6 3c 71 cc f3 3c 80 31 04 3e 8f 19 4e 3e
       0.030112116 0.029760571 0.12909508 0.20126937
000010 2b a5 97 3d 62 09 91 bd ae b1 e5 3c 17 fb be 3d
       0.0740455 -0.07081868 0.028038826 0.09325235
000020 8a 31 b6 3d e0 14 17 3e ca d4 bc bc 15 4a 4b 3d
       0.088961676 0.14754057 -0.023050684 0.049631197
000030 f4 16 0c 3e 3f f9 a7 3d 94 38 1f 3e 67 30 d5 bd
       0.13680631 0.08201837 0.15548927 -0.10409623
000040 33 f0 0f 3e 80 15 84 3d fe 88 25 3e 43 46 2c 3e
       0.14056472 0.06449413 0.1616554 0.16823678
000050 86 35 db 3d f4 4a 6a 3d 1e b5 eb 3d 45 92 06 3e
       0.10703568 0.057200387 0.11509155 0.13141735
000060 11 c1 8a bd 20 22 9a 3d 1f 2b a5 3d 54 c5 5b 3e
       -0.06775106 0.0752604 0.08064865 0.21461993
000070 77 8c e3 3d a9 b9 1b 3e af e6 22 3e 8d 55 4b 3e
       0.11110776 0.15207542 0.15908311 0.19856854
000080 54 35 12 be df 55 22 3e 89 30 28 3e 21 c9 c5 3d
       -0.14278156 0.1585307 0.16424765 0.09657503
000090 26 4a 09 3e f4 06 32 3e 7a c7 6c 3e 2a d7 08 3e
       0.13407192 0.17385465 0.2312297 0.13363329

model.flow.flows.1.icnn.Wxs.0.weight f4 [40, 1]
000000 c2 72 21 3f ea 98 93 3e b6 69 8e be f3 43 3d 3e
       0.6306573 0.28827602 -0.27815026 0.18482952
000010 20 79 f4 3e 92 8b e5 3e 97 61 52 bf 83 12 b3 3e
       0.4774866 0.44833046 -0.8218016 0.3497506
000020 59 24 66 3f f8 0d 24 bf be 06 7e bf 47 0a 2b bf
       0.8989921 -0.64083815 -0.9922904 -0.66812557
000030 b2 82 91 3e 3f a1 f1 3e 62 38 b4 3e 7a 85 b7 3e
       0.28420025 0.47193334 0.35199267 0.35844022
000040 6c a6 c2 be 1c b7 60 3f d9 0c 42 bf a8 79 32 bf
       -0.38017595 0.877794 -0.75800854 -0.6971688
000050 df 4a e4 3e fb 4e 22 3f 1c a6 ff 3e 65 7c 71 bf
       0.44588372 0.63401765 0.4993142 -0.94330436
000060 4a 0b 92 3d 1e b9 70 bf 8a 6e 6c 3f e4 fc 21 bf
       0.071310595 -0.94032466 0.9235617 -0.63276505
000070 e2 83 48 3f d1 f5 3a 3f 90 fd 3d 3f 68 06 d2 3e
       0.7832624 0.73031336 0.7421503 0.41020513
000080 4e f4 57 3f 62 43 50 3f 74 97 75 bf 54 d9 06 3f
       0.84357154 0.8135282 -0.95934224 0.52675366
000090 a4 84 3d 3f 3a 1d e6 3e 0c ee 6d be 0a 32 cf bc
       0.7403052 0.44944173 -0.23235339 -0.025292415

model.flow.flows.1.icnn.Wxs.0.bias f4 [40]
000000 c2 99 75 3e 2c 6b 42 bf dc 15 24 bf 5d 85 cc 3d
       0.23984435 -0.7594478 -0.64095855 0.099863745
000010 c0 da 1a bf 65 7d 58 be d8 88 72 3d 92 ea 2c bf
       -0.60490036 -0.21141584 0.059212536 -0.67545426
000020 c6 a2 54 3f 48 27 d3 be 6d d3 f2 be 42 ce 33 bf
       0.8306087 -0.41240907 -0.4742693 -0.702366
000030 0d 39 5f 3f 3b 28 6d 3f 6f 09 71 bf 44 90 73 bf
       0.8719643 0.9263951 -0.9415502 -0.95142007
000040 c0 8d 24 bf 4b 02 41 3f 7d b9 43 bf 35 77 47 bf
       -0.64278793 0.75394124 -0.7645491 -0.7791627
000050 f3 b7 7a 3e 54 2b 74 3e 3b 40 dc be 30 4b 1e be
       0.24484234 0.23844653 -0.43017754 -0.1545837
000060 97 ac c2 be 12 2e 61 3f d3 8c df be 1a de 08 3f
       -0.380223 0.8796092 -0.43662128 0.534639
000070 1f 4b 3f be 37 62 19 bf 59 c0 f6 3e a4 25 62 bf
       -0.18681 -0.5991549 0.48193625 -0.88338685
000080 e2 d5 fb ba bb e1 31 bf 0e 6c 71 bf 1c c1 98 be
       -0.0019213522 -0.6948506 -0.94305503 -0.2983483
000090 cd 37 57 bf 69 3c 45 3f 4e a9 cf 3d ee 5c 00 3f
       -0.8406952 0.77045304 0.10139714 0.501418

model.flow.flows.1.icnn.Wcs.0.weight f4 [40, 10]
000000 c8 be a2 3d 68 a0 4a 3e fc 49 a0 bd bd 29 a9 bd
       0.07946545 0.19787753 -0.078266114 -0.08259914
000010 1a 33 3a bc ef f1 87 bd f3 6d 2f be 66 f7 b5 3d
       -0.011364723 -0.06637942 -0.17131786 0.08885078
000020 75 ab cf be 52 12 9a 3e e6 76 3c 3e 5c 47 a5 bd
       -0.405605 0.30092102 0.18404731 -0.08070251
000030 c0 a7 04 3e f0 f0 15 be 94 79 4d 3e cd 5b 7f bd
       0.12954617 -0.14642692 0.2006591 -0.062343407
000040 50 dc 9d be 81 a8 b1 be 16 eb 81 3e d0 7d fa bd
       -0.30832148 -0.3469887 0.2537467 -0.12231028
000050 9d 93 85 3e 00 43 2a be c5 b6 ed 3d 3e 14 9e be
       0.26089182 -0.16627121 0.11607126 -0.3087482
000060 da 1a 86 3e 00 5b 55 3d f1 54 f6 bd 13 37 6b bd
       0.2619236 0.052088737 -0.1202792 -0.05742557
000070 4c ec b0 be 3d 4d 71 3e 6a 6e d7 3c c6 45 ef 3d
       -0.3455528 0.2356462 0.026297767 0.1168323
000080 5e 38 4b 3e 34 ba a3 be be bb 53 3e 10 a8 94 3d
       0.19845721 -0.31978 0.20677087 0.07258618
000090 dd cd 98 be a5 22 ba be a1 0b 1c 3e 53 c8 2f 3e
       -0.2984456 -0.36354557 0.15238811 0.17166261
0000a0 af 87 14 be 3e c8 8a bc 93 e8 d1 bd 73 70 09 be
       -0.14504884 -0.016941186 -0.10249438 -0.13421802
0000b0 3e 3d 50 be 9a 04 28 3e f3 0b 5f 3e ad 2a 63 be
       -0.20335862 0.16408005 0.21781902 -0.22184248
0000c0 3e b8 b6 3e ae 31 69 ba df de 9f be 7a e1 50 be
       0.3568744 -0.00088956475 -0.31224725 -0.20398512
0000d0 e8 f2 25 3d d0 9b 85 3e 06 86 00 be 50 a3 fb 3d
       0.040514857 0.26095438 -0.12551126 0.12287009
0000e0 10 a1 d5 bd 3c 9c 3f 3e 2e e0 5a 3e 79 61 b7 3e
       -0.10431111 0.18711942 0.2137458 0.35816553
0000f0 43 3d 82 3e ba a7 1f 3e d0 53 3f 3e f7 02 9b 3e
       0.25437364 0.15591326 0.18684316 0.302757
000100 aa 23 10 3d e2 cc b5 3a 9b a6 81 3e 6c b8 e1 3d
       0.035190262 0.0013870264 0.25322422 0.11021504
000110 2c 0e 90 be 80 7a 87 3e 9b 29 83 3e 33 4f 44 3e
       -0.28135812 0.26460648 0.2561768 0.19170837
000120 56 94 77 3e 40 a2 38 be 9c f3 85 be 61 a9 05 3d
       0.2417768 -0.18030643 -0.26162422 0.032632235
000130 04 c2 7c 3d 97 7b ca 3c 36 bb cd be 99 51 00 3e
       0.061708465 0.024717135 -0.40181893 0.12531127
000140 26 82 5a be 63 ae 07 3e 47 33 04 be 10 0f 06 3d
       -0.2133871 0.13250117 -0.12910186 0.03272921
000150 e6 b8 74 bd 37 83 74 3e f6 66 8a be c2 53 99 be
       -0.059746645 0.2387818 -0.27031678 -0.29946715
000160 ad a2 bd be a8 13 1a 3e 26 89 af be f7 27 16 be
       -0.37038174 0.15046561 -0.34284323 -0.14663683
000170 15 5a c6 3d e1 e9 b7 3d 0e 2f 9b be 88 5b 75 3e
       0.096851505 0.08980156 -0.30309337 0.23960698
000180 a2 23 c6 3d ef cc 8f 3d 97 3e c2 3e 31 8e 3a 3b
       0.09674765 0.0702151 0.37938377 0.00284661
000190 13 20 a2 be d9 7c c3 3d 79 92 77 be 2a 9b d2 3c
       -0.31665096 0.09545297 -0.24176969 0.025708754
0001a0 70 ca 0d 3d c7 49 e5 3c 80 64 49 be a9 25 08 3e
       0.034616888 0.027989281 -0.19667244 0.13295616
0001b0 7d 5f 75 be 2a 02 41 be 7e af 98 3e e1 7f b4 3e
       -0.23962207 -0.18848482 0.2982139 0.35253814
0001c0 c2 ab dc 3d c3 40 0a bd 7d be 8f be fd cf 9f 3b
       0.10774948 -0.033753168 -0.2807502 0.004877089
0001d0 1e 23 19 3e 9c 3a 40 bd 5c 73 75 3e 08 70 9b 3e
       0.14954802 -0.046930894 0.23969787 0.3035891
0001e0 c1 30 24 be 76 1a b1 be df c5 da 3d 05 ec 4b 3e
       -0.16034223 -0.345905 0.10682272 0.19914253
0001f0 97 0e 95 be da 33 90 be 45 9a b7 3e 76 99 bb be
       -0.29112694 -0.2816456 0.35859886 -0.3664052
000200 ea 79 80 3c 48 7b 8f bd ab b8 31 3e 3e 94 0b be
       0.015683133 -0.07005936 0.17355601 -0.13630769
000210 ac a7 98 be f0 83 07 3d 86 ea 2f 3e 85 7a 23 be
       -0.29815423 0.03308481 0.17179307 -0.15964706
000220 d9 87 80 3e f8 60 70 be 57 ad ac 3e 24 4f a0 be
       0.25103644 -0.2347449 0.33725998 -0.3131038
000230 49 df 9f be 12 ec eb 3c 7a f0 9c bd df 1e 90 be
       -0.3122504 0.02879909 -0.07663055 -0.28148553
000240 22 79 31 be e7 ba c3 be 5d e6 31 be 24 f6 05 3e
       -0.17331365 -0.38228533 -0.17373033 0.13082176
000250 a0 2f 23 3e b6 56 c9 be 91 e1 a6 be 08 92 82 be
       0.15936136 -0.39323968 -0.3259397 -0.25502038
000260 65 38 3c be 38 b7 f2 3d 72 39 85 3e e4 80 b6 3e
       -0.18380888 0.118513525 0.2602039 0.3564521
000270 86 a8 8b be b8 e2 51 3e ca 4a fd 3d 49 86 89 3e
       -0.2727701 0.20496643 0.123677805 0.26860264
000280 48 0d f6 bd 5a 30 f0 bd 02 a6 5f be 9b af 67 3e
       -0.12014252 -0.11727972 -0.2184067 0.22625582
000290 d1 e0 b3 3d f6 2c d8 3d 86 79 c4 be 04 ec 71 3d
       0.08783115 0.105554506 -0.38373965 0.059062973
0002a0 ce 6e 0b 3e e1 e8 8f 3d d5 68 1c be 6f d0 aa bb
       0.13616487 0.0702684 -0.15274365 -0.0052128355
0002b0 69 be a3 be ae 7e 03 be 76 e1 3d be e7 ac 40 be
       -0.3198121 -0.12841293 -0.18543038 -0.18815957
0002c0 bd 0b f6 bd 53 3e e5 3d b6 c4 b1 be ae 1f 0a 3e
       -0.12013958 0.11193528 -0.3472039 0.13488647
0002d0 02 0a 69 3e 5e c5 e6 bc d6 40 99 3e 00 86 70 be
       0.22757724 -0.028170284 0.29932278 -0.23488617
0002e0 93 0c 80 3e 45 57 bf 3e fb 30 a9 3e 14 32 50 3e
       0.25009593 0.3737127 0.33045182 0.20331603
0002f0 14 c2 52 bd c1 a8 4e be 85 8c 83 bd 42 91 87 3e
       -0.05145462 -0.20181562 -0.06423286 0.2647801
000300 3f f9 9a 3e 12 f7 2e be a8 fe e4 bd 01 8a 19 be
       0.30268285 -0.17086437 -0.11181384 -0.1499405
000310 74 27 ef bd 33 4d ec 3e 89 d7 91 3e 83 7d 81 3e
       -0.11677447 0.46152648 0.28484753 0.2529107
000320 35 87 46 bd 20 54 b3 be ce b3 41 bd 59 c3 2d 3d
       -0.048468787 -0.3502512 -0.047290616 0.042422626
000330 e4 c3 b7 3e dc 12 fe bd 36 e3 77 3d 42 7e 2f be
       0.3589164 -0.12405941 0.06051942 -0.17138007
000340 0f d5 01 be 6a d7 66 3d 1a 4b 7d 3e a5 78 6c be
       -0.12678932 0.05635778 0.2473568 -0.23092897
000350 e0 26 74 3e 66 8d 6a 3c be 90 3f bd 3a 3f 81 be
       0.23842955 0.014315939 -0.046768896 -0.2524355
000360 82 3e 87 be 68 f7 9d be f6 b2 98 be 98 3b 80 3e
       -0.26414877 -0.30852818 -0.29824036 0.25045466
000370 60 82 3f 3e d8 6a 2e 3c 07 52 59 3d 03 ac 48 3e
       0.18702078 0.010645591 0.053056743 0.19596867
000380 01 39 66 bc aa 91 04 3e f2 1e df 3d 11 75 6a be
       -0.014051677 0.12946191 0.10894574 -0.2289622
000390 a8 f0 cb 3e bd c7 9d be c1 a7 01 3e 93 62 8d bd
       0.39832044 -0.3081645 0.1266165 -0.06903567
0003a0 ec dd 1f be 17 f8 28 be 19 4c 22 3e 19 13 0b bc
       -0.15612 -0.16500889 0.15849341 -0.00848844
0003b0 cd d8 17 be c6 0f d2 be ca 9b 3c be 49 ed a5 bd
       -0.14828797 -0.4102766 -0.18418804 -0.08101899
0003c0 b0 9b 1b be 8d be 66 3e 73 eb fc bd 0d 7b 50 3e
       -0.15196109 0.22533627 -0.12349596 0.2035944
0003d0 8c 90 16 bd 16 44 43 3e f5 3a 08 3e 14 e8 49 3e
       -0.036758944 0.19068941 0.1330374 0.19717437
0003e0 92 c3 cf be d3 d4 d8 3e 8b 8c 20 be e7 aa 40 3e
       -0.40578896 0.42349872 -0.15678613 0.18815194
0003f0 d1 39 8a be ec 03 a0 be cf 59 a9 be 51 cd 6d be
       -0.26997235 -0.31252992 -0.3307633 -0.23222853

model.flow.flows.1.icnn.Wcs.0.bias f4 [40]
000000 6b 51 53 3e 98 fd 8e be 9f 92 e8 bb af 9b 5b be
       0.20636527 -0.27927852 -0.0070975567 -0.21446107
000010 e5 10 8b bd d7 64 52 bc 5f e4 a0 bb 85 38 c3 bd
       -0.06790332 -0.012841425 -0.0049100365 -0.095322646
000020 4d c8 07 3e ad 39 4b 3e 0a b7 11 3e d5 e0 38 3e
       0.13260002 0.1984622 0.1422998 0.18054517
000030 90 13 27 3d 83 dd 1e 3e 9d a9 8d 3e 1e 5a 69 be
       0.04079014 0.15514188 0.27668467 -0.22788283
000040 9d 99 bc 3e ef 76 19 3e 55 8a 53 3d 6f 88 f9 bd
       0.36835948 0.14986776 0.051645596 -0.12184226
000050 01 f1 ff bc 0c 1c a6 b9 33 b2 50 be 7d 56 75 3e
       -0.03124285 -0.00031682884 -0.20380478 0.23958774
000060 31 61 87 bd 6e 24 6d 3e 2d a6 a3 3e d8 f6 b9 3e
       -0.06610335 0.23158428 0.3196272 0.3632114
000070 35 41 a5 be 16 d1 8e 3e f9 8f aa 3e ec f7 97 3d
       -0.32276312 0.27893895 0.33312967 0.07420334
000080 3b 57 8d 3e a1 b6 80 be d4 ea 4c 3e e1 29 49 3e
       0.27605614 -0.25139335 0.20011455 0.19644882
000090 f2 7c b4 bc d9 86 c5 3d 6b 62 80 3e 8b 23 4d 3e
       -0.022032235 0.09644861 0.25075087 0.2003309

model.flow.flows.1.icnn.Wczs.0.weight f4 [40, 40]
000000 dc 02 57 bd 8c b1 af bd 5c ba 05 3d c3 ec 4b bd
       -0.05249296 -0.08578786 0.03264843 -0.04978634
000010 db 01 37 bd 90 c1 1f 3d 29 01 89 3d dd de 32 3c
       -0.044679504 0.039002955 0.066896744 0.010917393
000020 3c 43 4e bd e8 71 f6 3c ea 80 fe bc ef d0 09 3c
       -0.05035709 0.030083612 -0.03106733 0.00841163
000030 5e 5f 0d bd ea bd 36 bd ec 38 3c bc 49 2e a5 3c
       -0.034514777 -0.04461471 -0.011488181 0.020163672
000040 f9 5c 34 3b 82 80 6c bc f5 fd 75 3d d8 f4 7b ba
       0.0027521236 -0.0144349355 0.060056645 -0.00096113747
000050 04 47 99 bb d8 09 17 bd bb aa 9f 3c 40 e1 86 bd
       -0.004677655 -0.036874622 0.01949059 -0.06585932
000060 52 5c 46 3d 89 9e 39 bd ed 17 4a 3c ee 6d 29 3c
       0.048427887 -0.045317207 0.012334806 0.010341151
000070 7e 5b a9 bd f3 7a 9d 3c 0a b7 9b 3c 9b bd 21 bb
       -0.08269404 0.019223666 0.019008178 -0.0024679664
000080 ab ce 58 3d cc 3d 83 bb c9 a4 2a bd 99 16 b4 bd
       0.05293147 -0.0040051695 -0.041661058 -0.08793373
000090 36 07 26 3c 01 a2 c1 bd 13 0b 7b 3a 49 17 ce bc
       0.010133555 -0.09454728 0.00095765403 -0.025157588
0000a0 cc 5b c2 3d eb 4e 0f be a5 51 1d 3e d2 0e b7 bd
       0.09490165 -0.13994949 0.15363176 -0.089383736
0000b0 66 8f 63 bd cc 08 52 3d a3 98 cf 3d 15 4d fa 3d
       -0.055556677 0.05127792 0.10136535 0.122217335
0000c0 74 fc a1 bc 47 74 a8 39 49 cf a3 bc 26 5b 34 3d
       -0.0197737 0.0003213009 -0.019996302 0.04403224
0000d0 06 2d be bc 6b ad ab bd d4 8d 51 ba 97 87 86 bc
       -0.023214828 -0.08382686 -0.00079938513 -0.016422076
0000e0 6e 05 49 bd ca 66 39 3d 0e 80 68 3d 6a 63 b2 3c
       -0.049077444 0.045264043 0.056762747 0.02177592
0000f0 fb 68 e4 3a 75 03 c1 3c 98 39 31 bd 27 57 34 bd
       0.0017426306 0.023561219 -0.043267816 -0.044028427
000100 a7 38 01 3e b4 10 50 3c a5 a0 36 3d 54 73 1f ba
       0.12619267 0.012699295 0.044586796 -0.0006082554
000110 86 94 7d bd 1b eb 79 3b ed f6 27 bd de 82 d6 bd
       -0.06190922 0.0038134519 -0.04100697 -0.1047418
000120 d8 e5 c1 3d 77 d7 e9 bb 84 b1 9c bd fa 31 0d bd
       0.09467667 -0.007136281 -0.07651046 -0.03447149
000130 3a 44 8d 3d 46 14 a5 bd fc 05 de bc 95 6b c4 bd
       0.06897779 -0.080605075 -0.027102463 -0.09590832
000140 ed 4f 32 bd ae ff b6 bd d1 d4 2d 3d c0 41 53 bd
       -0.043533254 -0.08935486 0.042439286 -0.051576376
000150 4b 8e 37 bd f3 fd 25 3d 17 c9 8d 3d 29 3d 96 3c
       -0.044813436 0.040525388 0.069231205 0.01833971
000160 df 5c 4c bd 7b 64 ee 3c 55 62 03 bd 28 16 32 3c
       -0.049893256 0.029100647 -0.0320762 0.01086954
000170 b9 e9 0e bd 55 3c 4a bd bc 6a 31 bc 50 2a 9d 3c
       -0.034890864 -0.049373943 -0.01082867 0.019185215
000180 ca 32 b9 39 20 61 3f bc 57 d9 76 3d 10 63 7b 3a
       0.0003532379 -0.011680871 0.060265865 0.00095896516
000190 ee 03 96 bb 77 ab 0d bd 0f d5 7d 3c 8a 6c 86 bd
       -0.004578105 -0.03458735 0.015492692 -0.06563671
0001a0 76 96 5e 3d 32 9c 2a bd f4 17 6e 3c d2 14 24 3c
       0.05434271 -0.041652866 0.014532078 0.01001473
0001b0 58 16 a9 bd ae 2e 9a 3c d1 98 77 3c f3 24 0e bc
       -0.08256215 0.018821087 0.015112118 -0.008675802
0001c0 4a 0c 64 3d 90 e1 61 bb 82 b4 33 bd f8 f7 af bd
       0.055675782 -0.003446672 -0.043873318 -0.08592218
0001d0 2e 50 65 3c d5 a0 c1 bd e4 e3 13 b9 1e f7 f1 bc
       0.013996167 -0.094545044 -0.00014103908 -0.02953678
0001e0 de 03 a0 bd 6d fc 94 bd 86 7f 85 3a c3 da 23 bd
       -0.078132376 -0.07274709 0.00101851 -0.04000355
0001f0 95 d4 20 bd ca 89 08 3d b6 5b 70 3d b6 33 50 bc
       -0.039265234 0.03333453 0.058681212 -0.012707641
000200 98 4d 5e bd cf dd 0e 3d 23 11 01 bd 28 86 a4 3b
       -0.054273218 0.034879502 -0.031510483 0.0050208755
000210 51 ec 16 bd 5b 3c fc bc 1c 70 f3 bb 42 11 b6 3c
       -0.036846463 -0.030790498 -0.007429136 0.022225026
000220 cc cf 2c 3c 8e b7 bd bc 15 57 76 3d 0d 16 20 bb
       0.0105475895 -0.023158815 0.06014164 -0.0024427206
000230 59 2a 08 bc c9 0c 3c bd b2 d3 04 3d 4e 13 8f bd
       -0.008310878 -0.04591063 0.03242845 -0.06986104
000240 4f 95 d6 3c ba bc 51 bd c1 78 0c 3c 42 e7 81 3c
       0.026194243 -0.051205374 0.008573712 0.015857343
000250 4c 66 ac bd 9e 2c d5 3c b7 e3 05 3d 8e 11 93 3c
       -0.08417949 0.026022252 0.03268787 0.017952707
000260 37 17 31 3d 45 e3 c3 3a 82 33 1b bd 78 2f c5 bd
       0.04323503 0.0014945051 -0.03789092 -0.096281946
000270 2e 85 56 3b 7e e3 c5 bd 7b 68 43 3c 6d 6e 39 bc
       0.003273319 -0.09662531 0.011926766 -0.011317831
000280 78 91 a6 bd d7 44 93 bd 4e 82 62 bb 81 5c 22 bd
       -0.08133215 -0.071908645 -0.003456253 -0.039639
000290 d8 1b 1e bd a7 5c 06 3d 26 09 71 3d b7 c7 7c bc
       -0.038600773 0.032803204 0.058846615 -0.015428475
0002a0 69 61 61 bd bc ee 11 3d 5e ca 03 bd f2 b3 93 3b
       -0.05502454 0.035628065 -0.032175414 0.004507535
0002b0 ce 9e 18 bd f6 96 e8 bc 13 ff 0a bc 4a 21 bb 3c
       -0.037260823 -0.028392296 -0.008483666 0.022843022
0002c0 94 5d 3b 3c 8e c0 cf bc e1 cd 7a 3d 00 58 49 bb
       0.011435885 -0.025360372 0.061231498 -0.0030722618
0002d0 2e f7 09 bc 99 6b 41 bd 1a 2b 0f 3d c8 e6 90 bd
       -0.008420749 -0.047221754 0.034953214 -0.07075268
0002e0 fe fb c8 3c d8 6e 57 bd cd 5f 04 3c 2f 7c 88 3c
       0.024534222 -0.052595943 0.008079481 0.016660778
0002f0 cf 4b ae bd 8e 18 db 3c 41 4f 10 3d e5 b2 a2 3c
       -0.08510553 0.026745107 0.035231832 0.019860694
000300 c8 b5 30 3d 58 7e c0 3a 47 7c 18 bd 46 53 c7 bd
       0.04314211 0.0014686091 -0.037227895 -0.0973268
000310 ff c5 84 3a 20 00 c7 bd 2a 6d 5d 3c 6b 50 17 bc
       0.0010129808 -0.09716821 0.013514796 -0.009235482
000320 4d 83 b2 bd e0 6e 8c bd f6 76 2f bc a3 54 19 bd
       -0.0871645 -0.06857085 -0.010709515 -0.03743423
000330 c4 d6 1a bd 45 64 f9 3c de e9 65 3d 6f 16 ad bc
       -0.037802473 0.03044332 0.056131236 -0.021128861
000340 0a 91 60 bd 9f 54 14 3d a6 02 f4 bc 35 a2 3b 3b
       -0.05482582 0.036213513 -0.02978642 0.0028630618
000350 2d 52 16 bd 67 26 d5 bc 55 a4 de bb 5a a2 b8 3c
       -0.036699463 -0.026019288 -0.0067944922 0.022538353
000360 b5 2b 45 3c 69 1e db bc a7 25 78 3d a0 65 87 bb
       0.012034346 -0.0267479 0.060582783 -0.0041319877
000370 c2 9a 04 bc 89 8c 46 bd 59 58 18 3d 5e 7a 90 bd
       -0.008093538 -0.04847387 0.03719363 -0.0705459
000380 c6 c0 95 3c c6 d8 60 bd 00 23 c9 3b 27 f3 8b 3c
       0.018280398 -0.05489423 0.0061382055 0.017083718
000390 b4 0d b0 bd ba 7d e4 3c d9 7c 19 3d da 5b c2 3c
       -0.08596364 0.027891982 0.03747258 0.023725439
0003a0 06 19 24 3d 74 ec 0e 3b d0 70 12 bd 40 46 c9 bd
       0.040062927 0.0021808418 -0.035752118 -0.09827852
0003b0 f1 8c 1a ba b2 01 c8 bd 39 9e 82 3c d8 e6 eb bb
       -0.00058956357 -0.09765948 0.015944587 -0.0071991496
0003c0 e6 22 75 bd 10 e1 ac bd ac 2a cc 3c 44 bf 44 bd
       -0.059847735 -0.08441365 0.024922691 -0.048033968
0003d0 bf 1d 32 bd 43 5b 18 3d 70 13 88 3d c0 ec a0 3b
       -0.0434854 0.03719641 0.066443324 0.0049110353
0003e0 b4 59 56 bd 93 ff 01 3d be b2 04 bd 99 c5 f4 3b
       -0.05233164 0.031737875 -0.032397024 0.0074698445
0003f0 a3 b4 0e bd 2b 54 33 bd c5 00 4f bc 90 df a5 3c
       -0.034840237 -0.04378144 -0.012634461 0.020248204

model.flow.flows.1.icnn.Wczs.0.bias f4 [40]
000000 f5 0d 47 bd f3 ec 42 3c f9 1f 37 bd 5f 32 6b bd
       -0.048597295 0.011897313 -0.044708226 -0.057421084
000010 f2 83 6e bd c5 72 7b bd 25 ab 55 bd 2a c3 6a bd
       -0.0582313 -0.06138875 -0.05216517 -0.05731503
000020 e0 3a 50 bd 4e 48 71 bd a4 8a 78 bd 8d 2f 74 bd
       -0.050837398 -0.058906846 -0.060679093 -0.05961566
000030 36 b2 69 bd b4 60 6b bd 56 ad 66 bd f0 41 52 bd
       -0.05705472 -0.05746527 -0.05631765 -0.051332414
000040 f0 6e 7d bd 4a 3b 7d bd fd a1 80 bd c6 6b 27 bd
       -0.061873376 -0.06182412 -0.06280897 -0.040874265
000050 54 02 82 bd 19 bd 82 bd d2 18 3d bd 1e 0b 7d bd
       -0.063481 -0.06383724 -0.04616625 -0.06177818
000060 10 51 4e bd 9e a6 62 bd 24 df 77 bd db 45 22 bc
       -0.050370276 -0.05533468 -0.060515538 -0.00990435
000070 cb bd 77 bd 73 44 48 bd ac 6b 4e bd c0 54 7f bd
       -0.060483735 -0.048893403 -0.050395653 -0.062336683
000080 e6 94 66 bd 63 b9 74 bd 1a 80 70 bd f1 ec 7b bd
       -0.056294344 -0.05974711 -0.058715917 -0.06150526
000090 76 27 6f bd 30 83 6b bd 3b 6c 49 3d 75 0b 2f bd
       -0.058387242 -0.057498157 0.049175482 -0.042735536

model.flow.flows.1.icnn.Wczs.1.weight f4 [40, 40]
000000 7d c1 c0 3d 61 a1 88 bd 52 6d ff 3d 6a d6 a8 b8
       0.09411905 -0.066714056 0.12472023 -8.050802e-05
000010 c2 06 e3 bd 4d cf e8 bc cf 7d e0 3d 0d ba f3 3d
       -0.11085273 -0.028419161 0.10961496 0.11900721
000020 b8 92 b2 3d f9 b3 91 bd d2 e5 8d 3d 4a 9c f5 bb
       0.08719391 -0.07114405 0.069286 -0.0074954377
000030 4a 17 1f bd b9 57 e2 bd 5a a6 e9 bc 3f f1 68 bc
       -0.03884057 -0.11051888 -0.028521705 -0.014217674
000040 90 82 a4 bc 3a 49 4f 3d 72 4d 4a 3d 0a 2f 2e bd
       -0.020081788 0.050606944 0.049390264 -0.04252533
000050 ee 87 80 3b 0c 30 55 3d 3e d6 3c bd b9 97 01 bc
       0.003922454 0.052047774 -0.046102755 -0.007909709
000060 64 c4 02 3e 7a 0f 26 bd ed 73 80 bc bc 83 15 bd
       0.1277023 -0.040542103 -0.015680278 -0.036502585
000070 02 ce 9e 3c bf d4 f7 bc 07 82 fd bc ff cf e2 bd
       0.019385342 -0.030252812 -0.030945791 -0.11074828
000080 7d fe c8 3d ab cb bd bd a2 e6 08 bd b6 39 a7 3d
       0.09814165 -0.09267362 -0.033423074 0.08165304
000090 24 cd 43 3d 86 67 70 bb 50 4c cb bd 34 42 78 bd
       0.04780306 -0.0036682799 -0.09926665 -0.06061001
0000a0 d0 1b 7f 3d ba 95 0d bc 36 d8 33 3e c5 65 11 bd
       0.062282383 -0.008641655 0.17562947 -0.035497446
0000b0 6d b9 90 bd e8 05 be bb 84 d2 a8 3d e6 0b 99 3d
       -0.07066617 -0.005799044 0.08243278 0.074729726
0000c0 56 19 30 3d 4c 93 4e bd ed 79 c9 3c f7 b2 75 3c
       0.042992912 -0.050433442 0.024594272 0.014996282
0000d0 65 62 70 3d a4 04 f4 bc 95 a4 50 3d e5 07 0a bd
       0.058687586 -0.02978737 0.050938208 -0.033698935
0000e0 c0 4c dc bc 2b 53 9f 3d f7 68 51 3b c0 45 14 bc
       -0.026892066 0.07779535 0.0031953433 -0.009049833
0000f0 55 04 41 3d 72 0e 09 3e d2 bd 52 bd c5 a7 26 3d
       0.047123272 0.13384417 -0.051450558 0.04068734
000100 99 ca 52 3d e3 40 03 3d 7c ee 9a 3c 4f ff bf bc
       0.051462743 0.032044303 0.018912546 -0.02343717
000110 dc 6f 1c bc 27 5d b8 bc 4e 5f 93 bd 72 51 32 bd
       -0.009548154 -0.022505356 -0.07195912 -0.043534704
000120 72 b2 b5 3d 27 76 c5 3c ed 30 e5 bc 85 36 16 bd
       0.08871926 0.024104191 -0.027977431 -0.036673088
000130 66 a0 73 3d b6 ac 6b 3d 3f 65 09 bd a5 1a 8b bd
       0.05947914 0.057537757 -0.03354382 -0.067921914
000140 7f d9 76 bc 98 93 b5 bc b8 9c 27 bd 09 c5 51 bc
       -0.015066504 -0.022165105 -0.040920943 -0.0128033245
000150 fe 6a c5 3d b6 f5 d1 bc 85 49 c7 bd 70 23 73 3d
       0.09639548 -0.02562986 -0.097308196 0.059359968
000160 99 bd a8 bc f1 a1 38 bb 37 18 5c 3d 85 f4 76 3c
       -0.02059822 -0.0028172696 0.05373403 0.015072946
000170 b4 57 ca 3c 4f 57 e7 3d 32 70 26 3e 0c 13 86 bd
       0.024700023 0.1129595 0.16253737 -0.06546602
000180 6f 51 96 bb 10 45 d7 3d 83 e7 14 bc 83 0b 09 bc
       -0.0045873444 0.105112195 -0.0090884 -0.008364561
000190 e9 ad 0d bd 8d ba 48 bc 19 25 4f 3d 8d e7 1e 3c
       -0.03458968 -0.012251508 0.05057249 0.009698761
0001a0 5c c1 0c be 31 93 09 3e 72 ce 54 bc 0f 96 72 3d
       -0.13745636 0.13435055 -0.0129886735 0.05922514
0001b0 90 1a 9e 3d ba 24 20 3d 39 17 4d 3d d8 e9 16 3e
       0.0771991 0.039097525 0.050070975 0.14737642
0001c0 db a4 46 bd 71 ce c1 3d 17 9b 19 3b e3 ee 26 bd
       -0.048497062 0.09463204 0.0023438388 -0.040755164
0001d0 a6 70 0c 3e b2 d2 2c 3c 50 30 8d 3d fa 8c d3 bb
       0.13714847 0.010548281 0.068939805 -0.0064560147
0001e0 bc f1 ba 3d f7 95 a7 bd d9 1c 09 3e 00 67 95 bc
       0.091281384 -0.081829004 0.13389911 -0.01823759
0001f0 60 20 90 3c 62 98 9d bc 93 e1 a4 3d a9 00 09 3e
       0.017593563 -0.0192377 0.08050837 0.13379158
000200 b5 71 72 bc f8 34 11 bd b0 0f 5e bc 93 f9 37 3d
       -0.014797618 -0.035450906 -0.013553545 0.044915747
000210 a0 7f 89 bc f2 21 8f bb ec 00 60 3d 3c 9c 0f bd
       -0.01678449 -0.0043680603 0.05468838 -0.035061106
000220 8a 30 f6 bc c5 91 8b 3d b0 fd 83 3d 83 41 27 bd
       -0.030052442 0.06814913 0.064448714 -0.04083396
000230 17 3e b3 bb d4 22 16 3c fc bc 71 3c 6d 38 96 bc
       -0.005470048 0.009163577 0.01475453 -0.018337453
000240 68 b0 9e 3d e7 50 60 3d ba 13 93 3c 42 67 6f 3d
       0.077484906 0.054764654 0.017953742 0.058448084
000250 4e 12 17 bd fc 41 25 3d 69 5f 72 3c 7b eb ce bd
       -0.03688269 0.04034613 0.014793255 -0.10103508
000260 a9 ff c3 3d 90 da d8 3c 5b 30 85 bd 6b b6 36 3b
       0.09570248 0.026471406 -0.06503364 0.0027879726
000270 19 e9 dc 3d 23 5b db bc 22 29 64 3b e2 af 81 bd
       0.10786647 -0.026776856 0.0034814556 -0.06332375
000280 36 cf f2 3d 99 7e 92 bd 40 34 13 3e ee fb ff 3b
       0.118559286 -0.07153053 0.143754 0.007812015
000290 10 f2 0a be 02 3a a4 bb 7f 02 fd 3d 58 55 0c 3e
       -0.13568902 -0.005011798 0.12353992 0.13704431
0002a0 4e bf a4 3d 37 42 85 bd 4f ea 87 3d b6 4f aa 3c
       0.08044301 -0.0650677 0.06636488 0.020789962
0002b0 50 41 4b bd 7a bc e8 bd ce 6c 04 3c 25 e2 7c bb
       -0.049622834 -0.11364074 0.008082582 -0.003858694
0002c0 ac 21 ef ba 3f 0f 91 3d a4 ab 82 3d a6 6f 2a bc
       -0.0018244288 0.07082986 0.06380394 -0.010402596
0002d0 a5 b5 6e bc 69 bf 55 3d 35 af 26 bd 21 42 2a bc
       -0.014569675 0.052184496 -0.040694434 -0.010391743
0002e0 9d bb 15 3e 12 c4 87 bc 00 49 bf 3c 43 8e f4 bc
       0.1462235 -0.016572986 0.023350239 -0.029852992
0002f0 05 14 d4 3c 75 2b 26 bc f1 7f 82 bc 4e af c1 bd
       0.025888452 -0.010142197 -0.015930148 -0.09457265
000300 34 4e d9 3d 1e 7e 99 bd dd c8 ee bc bb 23 a3 3d
       0.10610619 -0.07494758 -0.029148513 0.079657994
000310 f2 81 89 3d b4 ff 98 3a 94 16 e1 bd 62 39 0b bd
       0.06714238 0.0011672885 -0.109906346 -0.03399027
000320 3e d6 95 3d 66 4b 8c bd ef 8c 1d 3e de 0d 62 bd
       0.07316254 -0.068503186 0.15385793 -0.055189006
000330 f2 7d ad bd 68 cc f1 bc e1 8e 05 3e 0f 32 fe 3d
       -0.08471288 -0.029516414 0.13042785 0.12411892
000340 a1 39 90 3b 05 55 82 bd 2c 10 f0 bb c1 7a 85 3d
       0.004401401 -0.063638724 -0.0073261466 0.06517554
000350 81 5f 61 bd a8 11 40 bd 1c 42 57 bb 0a 70 5e bd
       -0.05502272 -0.04689184 -0.00328458 -0.054306068
000360 83 72 5b bd 0c 00 df 3c 85 10 77 3d 91 93 ca 3c
       -0.053576004 0.027221702 0.06031849 0.024728568
000370 da 29 ec bc cd f6 57 3d 59 c6 0d bd 0f 22 06 bd
       -0.02882855 0.052725602 -0.034612987 -0.032747325
000380 bb a4 b7 3d 3e 8b 08 3b 58 32 57 3d 7e 0a 89 3d
       0.08966967 0.0020834948 0.052538246 0.06691454
000390 aa 9f 3e bd 0e ad 85 3d 31 f1 30 bd ee fc d7 bd
       -0.046538986 0.06527148 -0.043198768 -0.105462894
0003a0 2d 73 11 3e 37 55 8b 3c 83 db 89 bd 60 17 9e bc
       0.14204092 0.017008407 -0.06731322 -0.019298255
0003b0 8e b5 65 3d 10 40 1d bd fe d0 1f bd c4 34 98 bd
       0.056081347 -0.038391173 -0.03901767 -0.07431939
0003c0 ac ba 92 bd bc 10 8c 3d 38 5f b0 bd a2 09 62 3d
       -0.07164511 0.06839129 -0.086119115 0.055184968
0003d0 26 71 2a 3d 61 94 1c 3d ff 0e 54 bd c1 13 61 bd
       0.041611813 0.038227443 -0.051772114 -0.05495048
0003e0 8d a2 95 3c df a6 1b 3d 9d 73 60 3d 9e 52 24 bc
       0.018265987 0.038000938 0.054797757 -0.010029463
0003f0 e3 85 f1 3c b6 49 91 3d a7 20 f7 3d a4 09 98 3d
       0.029482787 0.07094137 0.12066775 0.07423714

model.flow.flows.1.icnn.Wczs.1.bias f4 [40]
000000 8e eb da bb 29 27 8c 3d 91 7e e6 3d 47 cf 20 3d
       -0.0066809123 0.06843407 0.112546094 0.039260175
000010 d2 35 8e 3d 05 95 50 bc 40 71 b8 3d 8a 91 b8 3d
       0.06943859 -0.0127308415 0.09005976 0.090121344
000020 de ac 0d 3d db ab 29 3d 70 ec a2 3d 87 d8 9b 3d
       0.034588687 0.04142366 0.07955253 0.07609659
000030 3b 12 a0 3d e7 95 0f 3e f0 72 44 3d b8 11 11 bd
       0.07815977 0.14022027 0.047961175 -0.03541729
000040 84 84 c2 3d 63 6b b8 ba 2a 95 32 3d 5e 97 db 3d
       0.094979316 -0.001407009 0.043599285 0.107222304
000050 bc 37 86 3d 21 cc 2d 3c d1 c4 a4 3d 02 0d b8 3d
       0.06553599 0.01060775 0.08045352 0.08986856
000060 86 76 e6 bc d8 b6 26 3d 03 56 3b bd c3 cc 97 3d
       -0.028132688 0.040701717 -0.045736324 0.07412102
000070 f9 45 90 3d 8b da 94 bc fa 50 ce 3c 06 e2 a8 3d
       0.07044596 -0.018170616 0.025185097 0.082462355
000080 c4 30 3b bc ae c9 8a 3c eb a6 9b 3d 9a f5 da 3d
       -0.011425201 0.016941871 0.076001965 0.10691376
000090 47 db e9 3c ca d5 21 3c 4c 67 d4 3d dd c1 a1 bb
       0.028546942 0.009877631 0.10371265 -0.0049364404

model.flow.flows.1.icnn.Wcxs.0.weight f4 [1, 40]
000000 fa 78 db 3c 9b c6 2c bd 7c e6 ba 3d e7 93 c4 3c
       0.026791085 -0.042181592 0.09125993 0.023996307
000010 6c 89 cf bc 71 c1 7d 3d 96 12 47 3d 25 df 5b 3d
       -0.025334083 0.06195206 0.04860171 0.053679604
000020 4a f4 21 ba 67 25 17 3d a9 04 1c 3c 2d d3 c2 3c
       -0.00061780645 0.036900904 0.009522595 0.023782337
000030 b2 5e 45 3b 4e 79 69 bc eb dc 8b 3d b2 8d 47 3d
       0.0030116257 -0.014250113 0.06829246 0.048719116
000040 aa fa 1c 3d 05 fd 5d 3d ac ee 17 3d a6 c8 92 3c
       0.03832499 0.054196376 0.03709285 0.017917942
000050 42 c5 ed 3a c6 db 59 3c 93 c8 40 3c 77 00 01 bd
       0.0018140452 0.013297027 0.011766571 -0.031494584
000060 b5 2a 12 3d 88 46 1c 3d 23 3f 10 3d cb e6 8c 3c
       0.03568526 0.0381532 0.035216462 0.017199894
000070 b2 59 9d ba 8f 5e 79 3c d5 9f d0 3c 6c 6b 02 3d
       -0.0012004881 0.015220298 0.025466839 0.031840727
000080 6c 8e 3c 3d e0 59 8f 3c 6e 96 b4 bc b1 3f 25 bd
       0.04603426 0.01749891 -0.022044387 -0.040343944
000090 03 7f a2 3d c8 90 cb bc fd 8c 26 bc 6b 0e 22 3b
       0.07934382 -0.02484931 -0.01016545 0.0024727832

model.flow.flows.1.icnn.Wcxs.1.weight f4 [1, 40]
000000 57 45 e3 bd ed 2c 48 3d ab 22 0f be 76 ef c1 ba
       -0.1109721 0.04887097 -0.13978069 -0.0014796096
000010 12 b4 d0 3d 1e 46 6b 3d 10 5f e0 bd e4 e9 06 be
       0.10190596 0.057439916 -0.10955632 -0.1317516
000020 9a 79 8b bd b3 c6 d8 3d 8c 77 2f bd 76 c6 07 bb
       -0.06810303 0.10584774 -0.04283862 -0.0020717657
000030 50 2f 96 3d 69 7f d7 3d 7b 4c b1 3d d8 fa 43 3d
       0.07333243 0.105223484 0.086571656 0.047846645
000040 65 f1 62 3d f0 c6 4d bd 85 8d 06 3d f1 c1 cc 3b
       0.055405993 -0.05023855 0.032849807 0.0062487056
000050 5f 80 b9 bc b1 85 bb bd c4 4a 00 3e 25 f0 e7 bc
       -0.02264422 -0.09156359 0.12528521 -0.028312752
000060 55 17 11 be 6d 24 64 3c 15 d1 13 bc ac b1 87 3d
       -0.14169057 0.0139247 -0.009022017 0.06625685
000070 ac 4c 90 bc 14 18 8c 3d 06 07 03 3e 2f 24 15 3e
       -0.017614685 0.0684053 0.12795648 0.14564584
000080 ea b5 b9 bd a2 3b a8 3d ac 8c 2f 3d 39 cd af bd
       -0.090679005 0.08214499 0.042858765 -0.08584065
000090 e1 63 0c bd 8c d4 20 bd 6d 05 ba 3d 30 d7 ec 3d
       -0.03427494 -0.0392652 0.09083066 0.11564481

model.flow.flows.1.icnn.Wccs.0.weight f4 [40, 40]
000000 ee 59 cc 3d fc 36 16 3e fa 2a 2a 3e 1c 68 75 bc
       0.0997809 0.14669412 0.16617957 -0.014978435
000010 b5 3b 59 be 97 69 56 be b9 a5 01 be c8 06 aa 3d
       -0.21214183 -0.20938717 -0.12660874 0.08302075
000020 30 72 51 3e 56 77 61 3d b4 ad 57 bd 6e a3 1d be
       0.20453715 0.05504545 -0.05265589 -0.15394375
000030 e5 86 80 bd 62 63 10 be 20 56 89 bc 29 38 2c be
       -0.06275729 -0.14100412 -0.0167647 -0.16818298
000040 10 e0 3c 3c e6 af c0 3d 1f 1c b0 bd 28 35 7a be
       0.01152803 0.0940855 -0.08599114 -0.2443434
000050 2a 5e 40 3e e7 03 c6 3d 49 64 fa 3c 5b a6 69 3e
       0.1878592 0.09668713 0.030565398 0.22817366
000060 e0 c4 e3 bd 88 6f 9f bd 78 14 33 be 34 3e a1 bd
       -0.11121535 -0.07784945 -0.17488277 -0.078731924
000070 3b c5 9c 3d 0d 82 0a be bd dd a4 3d b2 69 1d be
       0.07654806 -0.13526173 0.08050106 -0.15372351
000080 4d 58 05 3d c1 1b b2 bc 24 0e 65 3e 82 d0 19 3d
       0.032554913 -0.02174175 0.22368675 0.037552364
000090 55 1a fd bc 88 a6 7c 3c 14 89 57 3d ec 1a a3 bb
       -0.030896345 0.0154205635 0.052620962 -0.0049775746
0000a0 39 2f 1c 3e 59 82 d1 bd 4b b4 3c 3e b2 1f 30 be
       0.15252389 -0.1022994 0.18428151 -0.17199591
0000b0 28 d5 53 be be d3 37 3e 0a 93 04 3e 36 1e 96 3d
       -0.20686781 0.17951867 0.12946716 0.07329981
0000c0 9e d3 06 bd 42 4a 0d be ba 38 85 3d 1b dc 16 be
       -0.032916658 -0.13797858 0.0650496 -0.14732401
0000d0 0e 54 59 bd 7b 25 02 be f9 08 91 3c 8f 3f 7c 3d
       -0.053058676 -0.1270961 0.017704474 0.06158405
0000e0 30 4d bd 3d c1 1b 82 3c ad 87 aa bd 27 2f c0 3d
       0.09243238 0.015882375 -0.08326659 0.093839936
0000f0 f7 9e ca 3b 7b ef ae 3c 42 3c f7 bd 04 11 c8 bd
       0.006183501 0.021354428 -0.1207204 -0.097688705
000100 b4 e5 de 3d bc 75 06 bd b0 d6 61 bd 1f 4e 71 3b
       0.10883656 -0.032827124 -0.055136383 0.0036820245
000110 bb 2a 1b bd bb a7 37 be 80 29 de bd a7 36 83 bd
       -0.037882548 -0.17935078 -0.10847759 -0.064069085
000120 b9 76 0e 3d 38 0c f9 3c 30 49 ec bd 29 51 33 be
       0.03478119 0.030401334 -0.11537397 -0.17511429
000130 26 f2 fe 3d 2a 78 54 bd 6c b9 8d 3d 4e 3d 2c bd
       0.1244853 -0.05187241 0.06920132 -0.042050652
000140 54 b3 58 be 92 44 e3 bd ee e0 82 be a6 44 ca 3d
       -0.21162158 -0.11097063 -0.25562233 0.09876375
000150 b5 94 a0 3d 6a 20 83 bd aa 5f 18 be 26 0e 77 bb
       0.078408636 -0.06402667 -0.14880243 -0.0037697642
000160 c1 77 14 bd 48 16 54 3e 7f 86 8c 3b 83 6d b2 3d
       -0.03624702 0.20711625 0.004288494 0.08712294
000170 ab 1c 36 be a4 bc ab bc 84 e2 e1 3d 2c f6 79 3d
       -0.17784373 -0.020963974 0.110295326 0.061025783
000180 84 65 6f bd ca cf ee 3c 17 cf 9d bd 9e c7 85 bd
       -0.058446422 0.029151816 -0.07705515 -0.065322146
000190 b8 6c b1 bd 3e 42 18 be 61 fc 3b 3e 2c e4 e1 bc
       -0.086633146 -0.1486902 0.18357994 -0.027574621
0001a0 51 b7 6f be 4c b3 59 bd 26 4e a8 3d 76 f9 8d bd
       -0.23409773 -0.053149506 0.08218031 -0.069323465
0001b0 e7 e0 e5 3d d9 c9 e6 bc f6 0d 84 bd 25 37 d1 3d
       0.11224537 -0.02817242 -0.06447975 0.10215596
0001c0 90 60 3a be 0b 84 cb 3c 3f 75 b9 bd ed cc 81 3b
       -0.18200898 0.024843236 -0.09055566 0.0039611966
0001d0 6b 78 1d be 5c b6 dd bd 34 80 66 3e d2 f1 6f 3d
       -0.15377967 -0.10825798 0.22509843 0.058580227
0001e0 d7 04 20 bc 5a da c9 3d 35 21 90 3e 37 ce 7e 3e
       -0.009766779 0.098561004 0.28150335 0.24883352
0001f0 23 7a 4f be a6 1d c6 bd 11 87 c0 bc e2 be aa 3d
       -0.20261435 -0.09673624 -0.023501905 0.08337189
000200 1d ed fd 3d 3c a3 2a bd 37 03 02 3d 63 99 5b 3d
       0.123987414 -0.04165958 0.031741347 0.053613078
000210 da 92 c8 bc 85 34 23 be eb 3b 5c bd 53 da 22 be
       -0.024484087 -0.15938003 -0.05376808 -0.15903597
000220 de 5f 0d be cc 81 37 3e f8 09 bc 3d 09 42 29 3d
       -0.13806102 0.17920607 0.09181589 0.04132274
000230 a6 4d 16 3e 78 68 64 3e 5c 43 c6 3c 9c 39 40 3d
       0.14678058 0.22305477 0.024202041 0.04692994
000240 97 28 2a 3e d3 ab 13 3e 6d 13 90 bd 8d dc e3 3d
       0.16617046 0.14421014 -0.07034955 0.11126051
000250 db 0e dd bd dd bb 3e be 1f 83 ca 3d 2e 6f e0 bd
       -0.10793849 -0.18626352 0.098882906 -0.10958706
000260 fb 66 32 3d 74 2d 6e 3c 59 f4 14 be e2 38 93 3d
       0.04355524 0.014537204 -0.14546336 0.07188584
000270 db e2 81 bd 18 1a 2d 3e b0 df 53 be e5 33 32 3d
       -0.06342097 0.16904485 -0.20690799 0.04350652
000280 cd ce 5b 3d 3a a0 ce bd 58 93 8e 3e c3 6e 20 3e
       0.053664017 -0.100891545 0.2784679 0.15667252
000290 f3 d5 fd bd ce 43 fd ba a2 01 08 3c 5b a4 78 bc
       -0.12394323 -0.0019322576 0.008301171 -0.015175904
0002a0 c7 14 4b 3e f7 e2 0e bd dd ef 28 3d d2 ee 0a be
       0.19832145 -0.03488442 0.041244376 -0.13567665
0002b0 b2 a0 96 3c f2 bd 58 bc d0 db 5e be f2 1b 3d bc
       0.018387172 -0.01322888 -0.2176354 -0.011542307
0002c0 fa 21 d9 3d a0 e7 a4 3d 9b bf 35 bd 34 7b 13 be
       0.10602184 0.080519915 -0.044372182 -0.14402467
0002d0 a3 d9 67 3a 05 6b 31 3c 32 34 00 be b4 e8 b3 3d
       0.0008844381 0.010828738 -0.12519911 0.08784619
0002e0 47 5e b3 bc ee e8 7a 3c 11 30 3e be 37 63 58 be
       -0.02189554 0.015314324 -0.18573023 -0.21131597
0002f0 8d 32 6c 3c 1e c1 a1 3a 2c b5 48 be 71 52 ef 3d
       0.014416349 0.0012340879 -0.19600362 0.11685646
000300 f8 62 02 3e d1 b4 98 bd 68 b6 b0 bd 41 0c 8b 3d
       0.12733066 -0.07456363 -0.08628541 0.067894466
000310 de 1b 00 3d 60 b3 37 3e 6e ae 30 be 9e 4f dd 3c
       0.031276576 0.1793952 -0.1725404 0.027015503
000320 da 20 50 3d 83 12 ec 3d a4 88 02 3e 2d 7e ce bd
       0.05081258 0.11526968 0.12747437 -0.1008266
000330 db 58 22 be b9 eb ff 3d 5e ff d3 bd 0d cb b6 3d
       -0.15854208 0.124961324 -0.10351442 0.089254476
000340 70 ce 2d 3e 17 fb a7 bc 64 47 86 bb 41 7b b9 bd
       0.16973281 -0.020505471 -0.004097866 -0.09056712
000350 c7 7f 2f bd 36 96 87 3d 7b db 2c bd 09 e8 03 3d
       -0.042846467 0.06620447 -0.0422015 0.032203708
000360 60 97 1d 3e 19 67 d5 3c 7b f8 74 bd 73 e9 46 3e
       0.15389776 0.026050137 -0.059807282 0.19424991
000370 5d 59 28 3e 44 51 47 3e 46 1f 15 be 6e 06 7c 3d
       0.1644034 0.19464594 -0.14562711 0.06152957
000380 43 39 49 3e 3e af b5 3d 56 e9 93 bd 91 0b 69 be
       0.1965075 0.088713154 -0.0722224 -0.22758318
000390 70 07 84 3d 7e be 69 bd e5 92 6c be ca 82 d1 3d
       0.06446731 -0.057066433 -0.23102911 0.10230024
0003a0 4e 4a 8d bd a3 51 63 3c 81 dc 93 3d 7d 40 f0 bd
       -0.06898938 0.013874444 0.07219792 -0.1173105
0003b0 07 41 72 3e e1 aa d3 bc 3f f7 b1 3d 4f ce 53 3c
       0.23657618 -0.025838317 0.086897366 0.012927606
0003c0 b8 5d bf bd 08 71 41 be 5d 1b c9 bb 6a bb 07 bd
       -0.09344047 -0.18890774 -0.006137295 -0.033137716
0003d0 fb 4f e6 3d 51 f0 c7 bb f2 49 30 bc c4 42 00 bd
       0.11245724 -0.006101646 -0.010759817 -0.031313673
0003e0 da e7 46 be c0 7f 23 3e e7 b6 ca bd f5 02 63 bd
       -0.19424382 0.15966702 -0.09898167 -0.055422742
0003f0 5a 9c 80 3d c1 6a c1 bd ff 8d 4e 3b 8d 28 12 3d
       0.06279822 -0.0944419 0.0031517742 0.035683203

model.flow.flows.1.icnn.Wccs.0.bias f4 [40]
000000 30 d0 05 bd dd 12 a6 bd b3 ac f1 bd 30 7e 09 3e
       -0.032669246 -0.08109067 -0.11800518 0.13427043
000010 77 d9 be 3d ed cf c9 bd 1c 3b bc bd 28 bf 2a be
       0.09318822 -0.09854112 -0.09190962 -0.16674483
000020 90 12 46 3e 73 95 cd 3c 5f bc c8 3d bc 86 0a 3e
       0.19343019 0.025095677 0.09801554 0.1352796
000030 0a b9 6f bc ee 73 d8 3c d1 1e da bd f9 b6 0b 3e
       -0.014631519 0.026422467 -0.10650409 0.13644017
000040 b6 76 81 3d 89 72 0a 3e a2 28 be 3d bf 10 25 be
       0.063214704 0.13520254 0.09285094 -0.1611967
000050 3b ed 1d 3e 64 62 f0 bd 29 63 d5 bd 62 53 75 bd
       0.15422527 -0.117375165 -0.10419304 -0.059893973
000060 57 30 bf 3a b4 2a 4b bb c2 f7 1e bd 1f 52 50 bd
       0.001458655 -0.0031000795 -0.0388105 -0.050859567
000070 44 50 0c 3d 03 9e 70 bc eb ea 31 3e 8d e0 ee 3d
       0.034256235 -0.01468611 0.1737477 0.116639234
000080 95 da 90 3d f3 d9 dd bd d8 1d c2 3d 4c ff 50 3c
       0.07072941 -0.10832586 0.094783485 0.01275618
000090 3b cc 97 bc 72 0f 35 be 04 10 01 be f9 a2 2f 3d
       -0.018530002 -0.17681673 -0.12603766 0.042880032

model.flow.flows.1.icnn.actnorm0.b f4 [1, 40, 1]
000000 63 65 6b 3f d0 9d 63 3f 65 7f b5 bd 96 c9 0a bf
       0.9195158 0.8891268 -0.08862189 -0.54213846
000010 fe 97 44 bf a2 b0 e6 be 03 89 06 bf 63 db 4d bf
       -0.7679442 -0.45056635 -0.52552813 -0.8041288
000020 ce e2 52 3f 6d 05 1d 3f 37 ce 41 3f b5 07 78 bf
       0.82377326 0.61336404 0.75705284 -0.9688676
000030 c3 96 43 3d 3b 35 b5 3e 15 28 f0 3e 45 a0 ee bd
       0.0477512 0.35392174 0.4690558 -0.11651663
000040 47 bc 66 3e 38 51 b2 3e 45 32 db 3e 71 a8 7c bf
       0.2253276 0.3482759 0.4281179 -0.9869452
000050 6e 02 da bd ce a7 f8 be 32 e2 1f 3f 50 73 e4 3e
       -0.10644995 -0.48565525 0.6245452 0.44619226
000060 b6 e4 a9 3e 2c 15 02 be ea e2 80 3f df cd cc 3e
       0.33182305 -0.12703389 1.0069249 0.40000817
000070 36 01 17 bf 5e b4 76 bf 0e 1b 7b 3f d4 6f ba bd
       -0.5898622 -0.9636897 0.9808816 -0.09103361
000080 19 f1 0e 3f e2 e8 85 3e 6e b7 e1 3d d1 92 0d 3f
       0.55836636 0.26154238 0.110213146 0.5530215
000090 46 02 64 3e 2a e5 5c bf 36 00 77 bf a2 f2 d5 be
       0.22266492 -0.86287177 -0.96484697 -0.41786677
